final_weights.pth (torch_old, 28391 bytes, 6 tensors)

fc1.weight f4 [64, 37]
-0.090300225 0.011068824 -0.064146854 0.092927985 0.021459926 -0.097631805 0.15828845 -0.11354486
-0.25889876 -0.8593413 -0.16774975 -0.09652236 0.02897715 -0.12821732 -0.24125141 -0.011617922
0.104531646 0.17130515 0.03730029 -0.067345664 -0.083418615 0.2055953 0.19515418 0.030312449
-0.28137457 -0.15587875 0.13869056 0.2216412 -0.1493534 -0.2583239 -0.5752546 0.20383316
0.12254228 -0.12156701 -0.775678 -0.018698493 -0.0149729345 0.090504214 0.056257036 0.11514512
-0.048156366 -0.31943122 -0.10945878 -0.19354168 0.062062833 -0.3344334 -0.010059961 0.0898132
-0.110476606 0.010406377 0.071131214 0.16396128 0.15127715 -0.07124646 0.023595471 -0.07069457
0.39193195 -0.037845854 -0.08923204 -0.24758542 -0.27048162 0.0942624 0.16353415 -0.2542872
-0.052923854 -0.077604994 -0.80838525 0.047934067 0.12948786 0.06900047 0.04372946 0.12640797
-0.17239062 0.041777436 0.019687764 0.24136692 -0.003585684 -0.10931776 0.060241114 -0.45629466
-0.14870359 0.3229126 0.2533334 0.08408581 0.08137495 -0.10433488 0.04281188 -0.115496196
0.1478768 -0.096285395 0.070576824 0.008897736 0.26760182 0.15720932 -0.099454895 -0.009287091
-0.009241416 -0.10713316 0.13332552 -0.29234448 0.19059318 0.34214234 -0.19261701 0.055959277
-0.30509454 0.053728808 -0.028981825 -0.22785158 0.3321952 0.06617722 -0.037340805 0.0061124773
-0.24412547 -0.11534852 0.13729817 -0.17483495 -0.5096321 -0.37166527 0.30454564 -0.28669083
-1.3208247 -0.36128742 -0.13718933 0.10378915 -0.5801559 -0.19134603 -0.33043754 -0.092119455
-0.030290319 -0.11283903 -0.37915102 -0.081620075 -0.5026328 0.15404084 0.14222522 -0.871608
-0.012548332 -0.2684477 0.08536079 -0.13210385 -0.30749035 -0.042107597 -0.10118392 0.11930017
-0.5008066 -1.1537682 0.33399493 0.040033318 -0.18929063 -0.15027992 -0.18335895 -0.04765988
0.2176761 0.15237232 -0.079976045 -0.10556257 -0.010449697 0.07731118 -0.024241036 -0.08860486
-0.07449549 -0.063439004 0.08538828 -0.069299914 -0.19425929 -0.18271166 0.16640058 0.19086432
-0.2080139 0.06432193 0.003107702 -0.11986847 0.2950042 0.08400405 -0.26383707 -0.13622321
0.10495439 0.46984422 0.1728223 -0.22646303 -0.08894442 0.10611587 0.47853848 9.1991504e-05
0.00839998 0.13476007 -0.05032938 -0.0028977196 -0.0909504 0.08822583 0.27032375 0.055916343
-0.16777657 -0.113832645 -0.82709396 0.040493242 -0.081356846 0.043843832 -0.13127325 0.022815067
0.17187226 -0.013888137 -0.15131542 -0.04242469 -0.4778097 0.09160412 0.093545474 0.114239804
0.043319326 0.15248916 -0.004241279 0.10552662 0.04595549 -0.05059519 0.08779739 0.060867377
-0.12096404 -0.023627695 0.1390183 -0.0645402 0.0011737488 0.07602051 0.095166616 -0.54308015
-0.084913984 0.026826523 -0.32110676 0.016336009 -0.41953477 -0.01524375 0.12278597 -0.14005378
-0.17807068 0.18853545 0.033895753 -0.07915129 -0.0410859 -0.07718909 -0.3408572 0.09918731
-0.043338083 0.20219971 0.063748896 -0.29014593 -0.03326502 -0.0860353 -0.054333005 -0.014008904
-0.03249591 -0.053149577 -0.35166705 0.15191138 0.37916276 -0.30556726 -0.51645523 -0.25216377
00000000: 53ef b8bd 035a 353c 6d5f 83bd 0751 be3d
00000010: bacc af3c 2ff3 c7bd 5e16 223e 358a e8bd
00000020: 618e 84be cbfd 5bbf 97c6 2bbe 84ad c5bd
00000030: 7d61 ed3c 674b 03be 9c0a 77be 1959 3ebc
00000040: b014 d63d 9e6a 2f3e 30c8 183d 86ec 89bd
00000050: 61d7 aabd 9387 523e 7fd6 473e d051 f83c
00000060: 5410 90be ae9e 1fbe e604 0e3e e9f5 623e
00000070: 19f0 18be 0843 84be e343 13bf a4b9 503e
00000080: 72f7 fa3d 20f8 f8bd d592 46bf 952d 99bc
00000090: 0a51 75bc 465a b93d c76d 663d 34d1 eb3d
000000a0: 9c3f 45bd 7d8c a3be ed2b e0bd ca2f 46be
000000b0: 9935 7e3d db3a abbe 89d2 24bc fcef b73d
000000c0: 8f41 e2bd 827f 2a3c 3ead 913d 77e5 273e
000000d0: 66e8 1a3e aae9 91bd 4a4b c13c 51c8 90bd
000000e0: 4eab c83e 4104 1bbd 4abf b6bd 0887 7dbe
000000f0: 917c 8abe a50c c13d 7f75 273e ef31 82be
00000100: afc6 58bd 5eef 9ebd 56f2 4ebf 8356 443d
00000110: 7798 043e 1e50 8d3d aa1d 333d 1771 013e
00000120: 2b87 30be d11e 2b3d 3c48 a13c e428 773e
00000130: ccfd 6abb fde1 dfbd 63bf 763d 749f e9be
00000140: c145 18be cd54 a53e eab4 813e 2e35 ac3d
00000150: e9a7 a63d 87ad d5bd 835b 2f3d 4589 ecbd
00000160: 046d 173e 4731 c5bd 958a 903d cfc7 113c
00000170: 1b03 893e 7bfb 203e 02af cbbd e228 18bc
00000180: 4f69 17bc a168 dbbd 7c86 083e 2dae 95be
00000190: dc2a 433e 482d af3e 653d 45be 8e35 653d
000001a0: 5a35 9cbe bd12 5c3d 4b6b edbc ed51 69be
000001b0: 7d15 aa3e ec87 873d acf2 18bd 2d4b c83b
000001c0: 07fc 79be d83b ecbd e497 0c3e ef07 33be
000001d0: 4077 02bf e94a bebe 68ed 9b3e 24c9 92be
000001e0: c910 a9bf aafa b8be 5c7b 0cbe 688f d43d
000001f0: 1985 14bf 37f0 43be 1c2f a9be 20a9 bcbd
00000200: 6723 f8bc 2618 e7bd 1520 c2be 6d28 a7bd
00000210: 8bac 00bf e2bc 1d3e 7da3 113e b421 5fbf
00000220: 8597 4dbc fa71 89be a3d1 ae3d 3b46 07be
00000230: 606f 9dbe 0479 2cbd 8439 cfbd a653 f43d
00000240: dd34 00bf adae 93bf 6201 ab3e faf9 233d
00000250: 67d5 41be fbe2 19be 73c2 3bbe 0237 43bd
00000260: 7ce6 5e3e 7d07 1c3e 7bca a3bd 3031 d8bd
00000270: 3535 2bbc 5355 9e3d 2395 c6bc 7776 b5bd
00000280: 1791 98bd 4fec 81bd 0de0 ae3d 1ded 8dbd
00000290: e8eb 46be c418 3bbe ea64 2a3e f071 433e
000002a0: 9901 55be 37bb 833d 96aa 4b3b 9a7d f5bd
000002b0: ca0a 973e 510a ac3d a715 87be 197e 0bbe
000002c0: 54f2 d63d 6c8f f03e 54f8 303e ede5 67be
000002d0: 7e28 b6bd 4753 d93d ff02 f53e 90eb c038
000002e0: 12a0 093c 8bfe 093e 2e26 4ebd abe7 3dbb
000002f0: 3444 babd beaf b43d e067 8a3e 8908 653d
00000300: 9fcd 2bbe 1721 e9bd 6ebc 53bf 3edc 253d
00000310: 6b9e a6bd 9795 333d 7f6c 06be aae6 ba3c
00000320: 48ff 2f3e 128b 63bc 6ef2 1abe 83c5 2dbd
00000330: 79a3 f4be f19a bb3d c594 bf3d 8ff6 e93d
00000340: 9b6f 313d 1e26 1c3e 6dfa 8abb 571e d83d
00000350: d33b 3c3d e73c 4fbd 1ecf b33d 1250 793d
00000360: ffbb f7bd de8e c1bc d05a 0e3e a72d 84bd
00000370: 79d8 993a a4b0 9b3d b7e6 c23d 4d07 0bbf
00000380: 62e7 adbd 4cc3 db3c 1b68 a4be 18d3 853c
00000390: 43cd d6be ecc0 79bc 3677 fb3d 426a 0fbe
000003a0: 2958 36be 700f 413e 46d6 0a3d 121a a2bd
000003b0: b049 28bd 5015 9ebd d684 aebe b722 cb3d
000003c0: 4683 31bd 710d 4f3e c88e 823d 028e 94be
000003d0: e740 08bd 4633 b0bd 498c 5ebd 9a85 65bc
000003e0: 6e1a 05bd 5fb3 59bd b40d b4be a88e 1b3e
000003f0: 9f21 c23e 5073 9cbe 6936 04bf 9c1b 81be

fc1.bias f4 [64]
0.14379007 -0.05941376 -0.21537332 -0.049625766 0.07442868 0.022658948 -0.102045275 0.069084
-0.01256059 -0.10105409 0.13873944 0.1814186 0.10396548 0.0666659 -0.0026000557 -0.032382715
0.069754235 -0.044292867 -0.009237384 -0.19186193 -0.08746758 0.04971585 0.018051244 -0.21922724
-0.13871674 0.16703017 0.038046595 -0.114405796 0.21477798 0.2518992 -0.048240177 -0.19455974
0.1795205 -0.048170727 -0.18467456 0.113285005 -0.09267705 0.11516283 -0.048973083 -0.13056841
-0.10975582 0.0324941 -0.14892675 0.19536404 -0.015484275 -0.10483749 0.046939656 -0.16932802
-0.12412081 -0.016182689 -0.15755701 0.1295022 -0.018367676 -0.137306 -0.16035329 0.043967173
0.04585898 -0.13845207 -0.11815394 -0.14961447 0.06789879 0.07372304 0.06929386 -0.011595065
00000000: b43d 133e d85b 73bd d38a 5cbe 6344 4bbd
00000010: 106e 983d 429f b93c 1dfd d0bd ea7b 8d3d
00000020: efca 4dbc 72f5 cebd b611 0e3e ccc5 393e
00000030: dbeb d43d 2288 883d b265 2abb bda3 04bd
00000040: 4fdb 8e3d 706c 35bd 6658 17bc 7477 44be
00000050: 3422 b3bd d9a2 4b3d 34e0 933c 1b7d 60be
00000060: c30b 0ebe f509 2b3e bfd6 1b3d 964d eabd
00000070: c2ee 5b3e eff8 803e 7e97 45bd ab3a 47be
00000080: 39d4 373e ab4e 45bd 541b 3dbe f801 e83d
00000090: 77cd bdbd 7dda eb3d 0098 48bd bab3 05be
000000a0: a9c7 e0bd 8918 053d 4180 18be 830d 483e
000000b0: c2b1 7dbc 0ab5 d6bd cc43 403d 5364 2dbe
000000c0: 0d33 febd 8f91 84bc a056 21be 3a9c 043e
000000d0: cf77 96bc f299 0cbe a733 24be ec16 343d
000000e0: a0d6 3b3d 61c6 0dbe b1fa f1bd 8934 19be
000000f0: 850e 8b3d 1bfc 963d f0e9 8d3d 3af9 3dbc

fc2.weight f4 [64, 64]
-0.0064622154 0.04258273 0.16978079 0.1272714 0.13639376 0.073966354 0.04309262 -0.10927051
0.066685475 0.10116307 -0.05802271 -0.18961278 -0.0077885194 0.1828589 -0.0006001068 0.20080636
0.14122853 -0.012095716 0.122683465 0.051408496 -0.019716628 -0.059423413 -0.00048162727 0.027170664
-0.28296223 0.03312308 0.37196058 0.39603356 0.1870828 -0.256627 0.15844525 0.0495657
0.05465713 0.13015693 0.025049318 0.30954093 -0.13439485 0.057727974 0.3783058 -0.1731316
-0.0046995315 -0.25660044 0.014157079 -0.064288825 0.114863925 0.16142127 -0.10765977 0.0033317097
-0.06731233 -0.1777789 -0.069178976 -0.06324006 -0.12249746 -0.09422766 -0.00639278 -0.09660318
-0.032379054 -0.06432665 -0.21334064 0.17025171 -0.08903302 -0.2044285 0.017689895 -0.083996765
0.26276758 0.051255837 -0.06138715 0.14642455 0.100186266 0.07253128 0.17789567 0.023625033
-0.03256521 -0.081166655 -0.04455086 0.20997179 -0.24040554 0.05894932 -0.050777927 0.10978514
0.13513832 0.012701656 -0.12384059 -0.03863632 0.14538473 -0.008487533 0.15430312 0.03981818
-0.17354137 0.08747398 -0.0870434 -0.4008336 0.003468184 0.22267649 0.124234736 -0.05734319
-0.13555558 0.04677037 0.24134226 0.17749432 0.0039936695 0.022826929 -0.14994095 -0.023561314
0.10585718 0.31946808 0.020325614 -0.10092004 -0.0043365085 0.15414378 -0.14445834 -0.05728073
-0.068550095 -0.09589016 0.014860921 0.09574425 -0.068984 0.084741704 -0.19999433 0.0056670695
-0.1705774 -0.021555854 0.1713104 0.19421023 -0.13979869 0.108126715 -0.043888275 -0.19041273
-0.19807547 -0.012178293 0.07016902 -0.06014443 0.09597374 -0.08270517 -0.019990347 -0.0828195
0.04682606 -0.063929565 0.14159991 -0.07738999 -0.18887675 -0.026368428 0.026677247 0.29832017
-0.39926913 0.10797571 0.07339349 -0.085799314 -0.029709699 0.04152915 -0.09124484 0.12819722
-0.30217808 0.06020346 -0.08462738 0.39979225 -0.010977446 0.05277365 -0.09241802 -0.0010638153
0.059893347 -0.45583576 -0.2375862 0.29714194 0.04274484 0.17195934 0.2569169 -0.11767942
0.008589474 -0.010253779 0.08168255 -0.3079848 0.016167179 0.018221144 0.07870872 -0.35846236
0.0392984 -0.12652534 -0.23178503 0.07229959 0.098136105 0.080647215 -0.17596218 -0.044928506
0.0033264013 -0.13206226 -0.13764736 0.082538754 -0.13061711 -0.018528331 -0.043511152 0.075973816
-0.1635052 -0.12646247 0.058888905 -0.21396515 -0.017734721 -0.06222511 0.16880721 -0.048863355
-0.3243563 0.05718858 -0.06751612 0.12025376 0.0948778 -0.29487848 -0.3135239 0.07657439
-0.21565405 0.12578566 0.048684623 -0.03914098 -0.09483779 0.16670865 -0.101375446 0.32058346
0.08937704 -0.1556934 0.31213024 0.0477984 0.016928066 -0.26819554 0.090283744 -0.049531557
0.03482676 -0.016111802 0.22709273 0.26498938 -0.20882042 -0.1283496 -0.07714811 -0.14391439
-0.1371919 0.14806502 -0.008010171 -0.14486992 -0.21903406 0.010559037 -0.22384605 0.021296164
0.017690977 0.084687196 -0.3746116 -0.12415931 0.097356796 -0.2548239 -0.25996986 0.10105645
-0.13771147 -0.2767038 -0.17593624 0.14370316 -0.1699513 0.053071145 -0.5152766 -0.04930516
00000000: fec0 d3bb 3b6b 2e3d 04db 2d3e 6f53 023e
00000010: ceaa 0b3e ac7b 973d e381 303d 38c9 dfbd
00000020: 6592 883d 952e cf3d 39a9 6dbd da29 42be
00000030: d636 ffbb 5d3f 3b3e 7c50 1dba 2fa0 4d3e
00000040: 369e 103e 1c2d 46bc 7841 fb3d b791 523d
00000050: c484 a1bc f765 73bd eb82 fcb9 0395 de3c
00000060: 6de0 90be 11ac 073d 9e71 be3e e9c4 ca3e
00000070: a292 3f3e 9d64 83be 793f 223e 6705 4b3d
00000080: 28e0 5f3d dc47 053e 3a34 cd3c 267c 9e3e
00000090: ce9e 09be 2b74 6c3d 4cb1 c13e 6949 31be
000000a0: 87fe 99bb 2261 83be 18f3 673c dca9 83bd
000000b0: c73d eb3d 9e4b 253e ba7c dcbd d058 5a3b
000000c0: 0cdb 89bd ac0b 36be b5ad 8dbd 0184 81bd
000000d0: f3df fabd 6efa c0bd 877a d1bb e3d7 c5bd
000000e0: e69f 04bd b1bd 83bd f875 5abe 7756 2e3e
000000f0: f256 b6bd b455 51be 66ea 903c 7f06 acbd
00000100: 7989 863e a4f1 513d 1871 7bbd 51f0 153e
00000110: 752e cd3d 488b 943d 482a 363e 4989 c13c
00000120: 1963 05bd b43a a6bd f67a 36bd d802 573e
00000130: df2c 76be d874 713d 84fc 4fbd 08d7 e03d
00000140: b361 0a3e 9b1a 503c 23a0 fdbd 1e41 1ebd
00000150: bcdf 143e 4b0f 0bbc a301 1e3e 6318 233d
00000160: d4b4 31be 8f25 b33d cf43 b2bd 103a cdbe
00000170: 794a 633b 4e05 643e c86e fe3d b1e0 6abd
00000180: 15cf 0abe 4a92 3f3d 6d22 773e 12c1 353e
00000190: 54dd 823b 8aff ba3c 1f8a 19be a803 c1bc
000001a0: a6cb d83d 5291 a33e e781 a63c 2aaf cebd
000001b0: 4519 8ebb ded7 1d3e e3ec 13be 339f 6abd
000001c0: fe63 8cbd 0f62 c4bd 387b 733c 9015 c43d
000001d0: 7c47 8dbd 0f8d ad3d 50cb 4cbe d3b2 b93b
000001e0: d8ab 2ebe e795 b0bc fe6b 2f3e 0cdf 463e
000001f0: 6327 0fbe 8a71 dd3d 31c4 33bd 8efb 42be
00000200: 4cd4 4abe 7787 47bc c6b4 8f3d 015a 76bd
00000210: e18d c43d 5461 a9bd ccc2 a3bc 459d a9bd
00000220: afcc 3f3d 81ed 82bd 91ff 103e a57e 9ebd
00000230: e868 41be 9a02 d8bc 3e8a da3c 6cbd 983e
00000240: 016d ccbe 5e22 dd3d 534f 963d 8db7 afbd
00000250: c161 f3bc 781a 2a3d 93de babd 2246 033e
00000260: 16b7 9abe e797 763d 1f51 adbd 92b1 cc3e
00000270: bfda 33bc 2f29 583d a945 bdbd b86f 8bba
00000280: ba52 753d 4e63 e9be cc49 73be fd22 983e
00000290: 3715 2f3d 1c16 303e 9d8a 833e e801 f1bd
000002a0: ddba 0c3c 77ff 27bc 2e49 a73d 2fb0 9dbe
000002b0: 0871 843c 8244 953c 0a32 a13d 6188 b7be
000002c0: 5cf7 203d dc8f 01be 0e59 6dbe cf11 943d
000002d0: 95fb c83d 5e2a a53d 6e2f 34be f406 38bd
000002e0: c1ff 593b 543b 07be 6ef3 0cbe 140a a93d
000002f0: 7ec0 05be bac8 97bc c038 32bd 2998 9b3d
00000300: e86d 27be 617f 01be 7e35 713d ae19 5bbe
00000310: 6848 91bc c2df 7ebd ccdb 2c3e f124 48bd
00000320: 0712 a6be 933e 6a3d e445 8abd 9a47 f63d
00000330: 4b4f c23d 50fa 96be 3486 a0be 09d3 9c3d
00000340: 6ad4 5cbe f5cd 003e 8769 473d 4b52 20bd
00000350: 513a c2bd acb5 2a3e ee9d cfbd 8423 a43e
00000360: 4f0b b73d 176e 1fbe 89cf 9f3e 41c8 433d
00000370: baac 8a3c ed50 89be afe6 b83d 9ae1 4abd
00000380: 81a6 0e3d e6fc 83bc ff8a 683e b0ac 873e
00000390: 05d5 55be 146e 03be d4ff 9dbd 4b5e 13be
000003a0: 097c 0cbe 5b9e 173e 183d 03bc c858 14be
000003b0: 774a 60be d0ff 2c3c e637 65be 4b75 ae3c
000003c0: abec 903c 7b70 ad3d 17cd bfbe 3c47 febd
000003d0: 0063 c73d 4778 82be c51a 85be aff6 ce3d
000003e0: 3c04 0dbe 1fac 8dbe a128 34be ec26 133e
000003f0: b707 2ebe 2161 593d 2be9 03bf 35f4 49bd

fc2.bias f4 [64]
0.18891485 0.041175477 0.060384497 0.030009285 0.24761751 -0.14102846 -0.15366992 0.04063641
-0.03173116 0.1883738 -0.032223694 0.16957563 -0.034164175 -0.06753027 -0.15160495 0.1376069
0.09664042 -0.0110919075 -0.08605611 0.07658951 0.2737099 0.46099064 -0.09516248 -0.04173538
-0.043330308 -0.08692316 0.23507452 -0.014547402 -0.097805485 0.43254402 0.075996526 -0.072767735
-0.017868612 0.2761684 0.16253483 -0.14519493 -0.09767939 -0.29454508 0.123827465 -0.1445605
-0.050352342 0.4766326 0.14835323 -0.075350165 -0.06123006 -0.1549195 0.045248117 -0.02081667
-0.036285687 -0.17286022 -0.15664914 0.3852799 -0.18033582 -0.045408502 0.3647834 -0.064902395
-0.2611441 -0.20263296 0.063748665 -0.17183363 0.043602373 0.3958833 0.036486402 -0.07052439
00000000: e572 413e 9ea7 283d bc55 773d 08d6 f53c
00000010: 728f 7d3e c469 10be a65b 1dbe 5d72 263d
00000020: 88f8 01bd 10e5 403e fefc 03bd 3ca5 2d3e
00000030: bcef 0bbd 4f4d 8abd 543e 1bbe d3e8 0c3e
00000040: 6aeb c53d d5ba 35bc 303e b0bd f6da 9c3d
00000050: b423 8c3e f706 ec3e 8ce4 c2bd b8f2 2abd
00000060: 1f7b 31bd c504 b2bd 60b7 703e 3a58 6ebc
00000070: 3e4e c8bd 6976 dd3e 11a4 9b3d 4007 95bd
00000080: 3261 92bc f265 8d3e 886f 263e fbad 14be
00000090: 220c c8bd 9dce 96be 4199 fd3d ab07 14be
000000a0: 423e 4ebd 3009 f43e e9e9 173e 3051 9abd
000000b0: 5fcc 7abd 38a3 1ebe 1756 393d b987 aabc
000000c0: 4da0 14bd 4502 31be a268 20be 6843 c53e
000000d0: f4a9 38be 44fe 39bd e4c4 ba3e 8ceb 84bd
000000e0: aeb4 85be 047f 4fbe a98e 823d 28f5 2fbe
000000f0: 6798 323d 37b1 ca3e c472 153d 176f 90bd

fc3.weight f4 [4, 64]
0.11044132 0.16731064 0.03543532 -0.024799034 0.05815193 0.3859885 0.08812195 0.17936838
0.22827204 0.33642423 -0.023671038 0.30130354 0.14955606 -0.0014612464 -0.048176985 -0.0063353046
-0.46976006 0.05376382 -0.38939244 0.06920938 0.19067511 0.16052365 0.086015776 -0.23953049
0.08287048 -0.43194374 0.118119985 0.10147652 0.104394205 0.15260445 -0.2279062 0.06422207
0.0071126954 0.10905251 0.06024324 0.18952583 0.1292571 -0.24141148 0.0567093 -0.25817913
0.24612826 0.12477611 0.13591728 0.059935223 -0.10303156 0.02644873 0.12725861 0.24470323
-0.20796216 0.21841435 0.072997466 0.28208604 0.07644086 -0.30009097 0.14372805 0.1766856
-0.18446508 -0.16652553 0.5736415 -0.056856953 -0.48320222 0.18648721 0.15397006 0.043132536
0.17124939 0.0004680788 0.21826194 -0.4050737 0.17980011 -0.08558298 -0.0005848392 0.026014067
-0.06273566 0.3813968 0.016504213 0.22271469 0.022937795 -0.21673906 -0.21361716 0.029141212
-0.6922787 -0.26693806 -0.27073497 0.010366352 0.11980393 0.15898459 0.16604793 0.5412528
-0.051550545 -0.20599425 0.10368142 -0.03533183 -0.55137885 0.20462893 0.10842545 0.30274296
-0.17280205 -0.0014680558 0.15329136 -0.43215358 0.13221774 -0.14307055 -0.011940917 0.24293165
0.21376854 0.1790998 0.14892457 0.042288475 -0.43766516 -0.12702695 0.104622684 0.36706802
-0.13879184 0.26619694 0.33272237 0.2015437 0.29324025 -0.21369503 0.1981938 0.17137346
-0.17633696 -0.16650522 0.06563954 -0.58051616 -0.09919297 0.035818268 0.15584439 0.22853178
0.21842265 0.17842655 0.20722382 -0.14512119 0.32417965 0.10337715 0.09428335 -0.07352691
0.28068718 0.17434217 -0.250684 -0.110387 0.45016915 -0.23566315 -0.25016737 0.17005007
0.32107332 -0.26986903 -0.34644842 -0.48051807 0.13002567 0.20285504 -0.09899133 -0.18529578
-0.35764763 0.28948152 0.18346609 -0.100063175 0.55653495 0.17194277 0.10770715 0.22104004
-0.23329908 0.20233002 0.0726623 -0.20946844 0.09100419 -0.21447252 -0.16518478 -0.052271064
0.11823403 0.14869617 0.33320245 -0.18768275 0.005792407 -0.1054624 0.09998733 0.35523316
-0.00895124 0.32588196 0.1232405 0.28773203 -0.27064332 -0.24951321 0.16239604 0.45704147
-0.07869155 -0.07009357 -0.25508085 -0.31460324 -0.15282275 0.19203907 0.32388526 0.20415814
-0.018042753 0.022368314 -0.1117223 -0.028537702 0.086792156 0.1796491 -0.0683365 0.60436875
-0.06621726 0.27186432 0.14016159 -0.039874464 0.27991667 0.0966723 -0.15542059 -0.21861283
0.23715465 -0.2384616 -0.23174746 -0.018297434 0.23531844 0.3789871 -0.16577028 0.11253268
0.542483 -0.4093712 0.3828965 0.36938268 0.30596358 0.08900536 -0.13605826 -0.06758706
-0.11324853 0.100801855 -0.03974443 0.056682035 -0.19741657 -0.029868685 0.3271553 -0.3791596
-0.23317198 0.2302063 0.16186498 -0.14741333 -0.024826307 -0.13810481 0.25655365 0.124914266
-0.19309524 -0.016741158 0.019626325 0.08051265 0.09740173 0.025029665 0.15727851 0.11429825
-0.0052821976 -0.1143429 0.34386125 -0.29772335 -0.18266232 0.052091304 0.0021108475 0.06566395
00000000: 0f2f e23d 7b53 2b3e a024 113d 5827 cbbc
00000010: b830 6e3d 49a0 c53e 4879 b43d 58ac 373e
00000020: 25c0 693e cc3f ac3e c4e9 c1bc 7544 9a3e
00000030: 3925 193e 4b87 bfba 3b55 45bd 6398 cfbb
00000040: 6484 f0be 7437 5c3d 725e c7be a6bd 8d3d
00000050: 5640 433e 5060 243e 0a29 b03d 7b47 75be
00000060: 00b8 a93d bb27 ddbe e4e8 f13d ecd2 cf3d
00000070: a1cc d53d 5744 1c3e 3e60 69be dc86 833d
00000080: 9d11 e93b ec56 df3d 9ec1 763d 0f13 423e
00000090: f95b 043e 9234 77be 0348 683d 0e30 84be
000000a0: 0c09 7c3e 9e8a ff3d e62d 0b3e a37e 753d
000000b0: 3602 d3bd 02ab d83c 1550 023e 7c93 7a3e
000000c0: 08f4 54be 03a8 5f3e b27f 953d 956d 903e
000000d0: 078d 9c3d 86a5 99be 722d 133e 12ed 343e
000000e0: 6ae4 3cbe ab85 2abe 2bda 123f d6e2 68bd
000000f0: 4866 f7be 81f6 3e3e 54aa 1d3e beab 303d
00000100: 005c 2f3e 7968 f539 0f80 5f3e d265 cfbe
00000110: 851d 383e 2146 afbd e54f 19ba 741b d53c
00000120: 8e7b 80bd 7146 c33e d833 873c 520f 643e
00000130: 0be8 bb3c d8f0 5dbe 75be 5abe 8db9 ee3c
00000140: 2d39 31bf 1bac 88be c69d 8abe a2d7 293c
00000150: c35b f53d dbcc 223e 7808 2a3e 8b8f 0a3f
00000160: aa26 53bd 28f0 52be ed56 d43d 1cb8 10bd
00000170: 2a27 0dbf 3f8a 513e 2a0e de3d 2001 9b3e
00000180: 05f3 30be c76b c0ba 69f8 1c3e 3c43 ddbe
00000190: 1664 073e 1681 12be d6a3 43bc 13c3 783e
000001a0: 24e6 5a3e f065 373e af7f 183e ae36 2d3d
000001b0: a615 e0be 5a13 02be 6b44 d63d 57f0 bb3e
000001c0: 731f 0ebe f74a 883e 965a aa3e 7961 4e3e
000001d0: 9623 963e dfd2 5abe 51f3 4a3e 867c 2f3e
000001e0: ad91 34be 5880 2abe 066e 863d b59c 14bf
000001f0: af25 cbbd 2db6 123d ac95 1f3e 3c04 6a3e
00000200: 30aa 5f3e 73b5 363e 7b32 543e a69a 14be
00000210: e0fa a53e 66b7 d33d a117 c13d 4795 96bd
00000220: 3bb6 8f3e c186 323e a759 80be 9412 e2bd
00000230: 927c e63e ae51 71be f015 80be 9b21 2e3e
00000240: b963 a43e 462c 8abe b061 b1be 7706 f6be
00000250: 7325 053e 3bb9 4f3e f7bb cabd 2dbe 3dbe
00000260: 971d b7be ec36 943e 89de 3b3e eced ccbd
00000270: 1379 0e3f c411 303e 9195 dc3d 5258 623e
00000280: f4e5 6ebe 9a2f 4f3e f9cf 943d e57e 56be
00000290: 6860 ba3d af9e 5bbe 3326 29be 2f1a 56bd
000002a0: af24 f23d cf43 183e 8399 aa3e e82f 40be
000002b0: 3bce bd3b acfc d7bd 28c6 cc3d 1fe1 b53e
000002c0: 39a8 12bc 00da a63e 8465 fc3d 9d51 933e
000002d0: c391 8abe 6480 7fbe 264b 263e 5701 ea3e
000002e0: 0929 a1bd 388d 8fbd f599 82be ad13 a1be
000002f0: 917d 1cbe e4a5 443e 4ad4 a53e d50e 513e
00000300: 65ce 93bc c13d b73c a9ce e4bd e6c7 e9bc
00000310: 16c0 b13d eff5 373e 02f4 8bbd e9b7 1a3f
00000320: ea9c 87bd cd31 8b3e 8586 0f3e 6853 23bd
00000330: 3d51 8f3e 20fc c53d 9326 1fbe 0bdc 5fbe
00000340: abd8 723e 472f 74be 354f 6dbe 80e4 95bc
00000350: 51f7 703e 990a c23e afbf 29be 8977 e63d
00000360: 2ae0 0a3f 1a99 d1be 030b c43e ba1f bd3e
00000370: 42a7 9c3e 7148 b63d db52 0bbe 166b 8abd
00000380: d8ee e7bd 3471 ce3d 0ecb 22bd 6c2b 683d
00000390: 9227 4abe 2caf f4bc e680 a73e 3521 c2be
000003a0: a3c4 6ebe 33bb 6b3e efbf 253e 85f3 16be
000003b0: 8a60 cbbc 596b 0dbe 005b 833e 0dd3 ff3d
000003c0: c2ba 45be c124 89bc 63c7 a03c d1e3 a43d
000003d0: 8f7a c73d 030b cd3c 9e0d 213e 3315 ea3d
000003e0: 4916 adbb 9c2c eabd 950e b03e 326f 98be
000003f0: d50b 3bbe b15d 553d 2556 0a3b d27a 863d

fc3.bias f4 [4]
0.37229407 0.31837684 0.17744796 0.19000305
00000000: 549d be3e 4a02 a33e ebb4 353e 2990 423e
